I am on
roberto
I got gpu number
1
let the training begin
 MODE IS double
_________________________________________________________________
Layer (type)                 Output Shape              Param #   
=================================================================
conv2d_1 (Conv2D)            (None, 20, 20, 32)        8224      
_________________________________________________________________
activation_1 (Activation)    (None, 20, 20, 32)        0         
_________________________________________________________________
conv2d_2 (Conv2D)            (None, 9, 9, 64)          32832     
_________________________________________________________________
activation_2 (Activation)    (None, 9, 9, 64)          0         
_________________________________________________________________
conv2d_3 (Conv2D)            (None, 7, 7, 64)          36928     
_________________________________________________________________
activation_3 (Activation)    (None, 7, 7, 64)          0         
_________________________________________________________________
flatten_1 (Flatten)          (None, 3136)              0         
_________________________________________________________________
dense_1 (Dense)              (None, 512)               1606144   
_________________________________________________________________
activation_4 (Activation)    (None, 512)               0         
_________________________________________________________________
dense_2 (Dense)              (None, 6)                 3078      
=================================================================
Total params: 1,687,206.0
Trainable params: 1,687,206.0
Non-trainable params: 0.0
_________________________________________________________________
None
iter_ctr 1152, num_episodes : 1, episode_reward : 18.0, loss : None, episode_timesteps : 1152, epsilon : 1.0
iter_ctr 1769, num_episodes : 2, episode_reward : 6.0, loss : None, episode_timesteps : 617, epsilon : 1.0
…
